…
   Param #     Connected to                     \n","==================================================================================================\n","Store_input (InputLayer)        [(None, 1)]          0                                            \n","__________________________________________________________________________________________________\n","DayOfWeek_input (InputLayer)    [(None, 1)]          0                                            \n","__________________________________________________________________________________________________\n","Store_embedding (Embedding)     (None, 1, 2)         2230        Store_input[0][0]                \n","__________________________________________________________________________________________________\n","DayOfWeek_embedding (Embedding) (None, 1, 2)         14          DayOfWeek_input[0][0]            \n","__________________________________________________________________________________________________\n","Store_flatten (Flatten)         (None, 2)            0           Store_embedding[0][0]            \n","__________________________________________________________________________________________________\n","DayOfWeek_flatten (Flatten)     (None, 2)            0           DayOfWeek_embedding[0][0]        \n","__________________________________________________________________________________________________\n","concatenate (Concatenate)       (None, 4)            0           Store_flatten[0][0]              \n","                                                                 DayOfWeek_flatten[0][0]          \n","__________________________________________________________________________________________________\n","dense (Dense)                   (None, 20)           100         concatenate[0][0]                \n","__________________________________________________________________________________________________\n","dense_1 (Dense)                 (None, 1)            21          dense[0][0]                      \n","==================================================================================================\n","Total params: 2,365\n","Trainable params: 2,365\n","Non-trainable params: 0\n","__________________________________________________________________________________________________\n"]},{"output_type":"stream","name":"stderr","text":["/usr/local/lib/p
…
   Param #     Connected to                     \n","==================================================================================================\n","day_of_week_input (InputLayer)  [(None, 1)]          0                                            \n","__________________________________________________________________________________________________\n","store_input (InputLayer)        [(None, 1)]          0                                            \n","__________________________________________________________________________________________________\n","day_of_week_Embedd (Embedding)  (None, 1, 4)         28          day_of_week_input[0][0]          \n","__________________________________________________________________________________________________\n","store_Embedd (Embedding)        (None, 1, 50)        55750       store_input[0][0]                \n","__________________________________________________________________________________________________\n","day_of_week_flat (Flatten)      (None, 4)            0           day_of_week_Embedd[0][0]         \n","__________________________________________________________________________________________________\n","store_flat (Flatten)            (None, 50)           0           store_Embedd[0][0]               \n","__________________________________________________________________________________________________\n","competition_distance_input (Inp [(None, 1)]          0                                            \n","__________________________________________________________________________________________________\n","All_Concatenate (Concatenate)   (None, 55)           0           day_of_week_flat[0][0]           \n","                                                                 store_flat[0][0]                 \n","                                                                 competition_distance_input[0][0] \n","__________________________________________________________________________________________________\n","dense_2 (Dense)                 (None, 1000)         56000       All_Concatenate[0][0]            \n","__________________________________________________________________________________________________\n","dense_3 (Dense)                 (None, 500)          500500      dense_2[0][0]                    \n","__________________________________________________________________________________________________\n","dense_4 (Dense)                 (None, 1)            501         dense_3[0][0]                    \n","==================================================================================================\n","Total params: 612,779\n","Trainable params: 612,779\n","Non-trainable params: 0\n","__________________________________________________________________________________________________\n"]}]},{"cell_type":"code","metadata":{"id":"MDl0TN0OhLSK","executi
…
   0                                            \n","__________________________________________________________________________________________________\n","SchoolHoliday_fw_input (InputLa [(None, 1)]          0                                            \n","__________________________________________________________________________________________________\n","SchoolHoliday_bw_input (InputLa [(None, 1)]          0                                            \n","__________________________________________________________________________________________________\n","Store_Embed (Embedding)         (None, 1, 50)        55750       Store_input[0][0]                \n","__________________________________________________________________________________________________\n","DayOfWeek_Embed (Embedding)     (None, 1, 2)         14          DayOfWeek_input[0][0]            \n","__________________________________________________________________________________________________\n","Year_Embed (Embedding)          (None, 1, 2)         6           Year_input[0][0]                 \n","__________________________________________________________________________________________________\n","Month_Embed (Embedding)         (None, 1, 2)         24          Month_input[0][0]                \n","__________________________________________________________________________________________________\n","CompetitionMonthsOpen_Embed (Em (None, 1, 2)         50          CompetitionMonthsOpen_input[0][0]\n","__________________________________________________________________________________________________\n","Promo2Weeks_Embed (Embedding)   (None, 1, 1)         26          Promo2Weeks_input[0][0]          \n","__________________________________________________________________________________________________\n","StoreType_Embed (Embedding)     (None, 1, 2)         8           StoreType_input[0][0]            \n","__________________________________________________________________________________________________\n","Assortment_Embed (Embedding)    (None, 1, 3)         9           Assortment_input[0][0]           \n","__________________________________________________________________________________________________\n","PromoInterval_Embed (Embedding) (None, 1, 3)         12          PromoInterval_input[0][0]        \n","__________________________________________________________________________________________________\n","State_Embed (Embedding)         (None, 1, 6)         72          State_input[0][0]                \n","__________________________________________________________________________________________________\n","Events_Embed (Embedding)        (None, 1, 4)         88          Events_input[0][0]               \n","__________________________________________________________________________________________________\n","Promo_fw_Embed (Embedding)      (None, 1, 1)         6           Promo_fw_input[0][0]             \n","__________________________________________________________________________________________________\n","Promo_bw_Embed (Embedding)      (None, 1, 1)         6           Promo_bw_input[0][0]             \n","__________________________________________________________________________________________________\n","StateHoliday_bool_fw_Embed (Emb (None, 1, 1)         3           StateHoliday_bool_fw_input[0][0] \n","__________________________________________________________________________________________________\n","StateHoliday_bool_bw_Embed (Emb (None, 1, 1)         3           StateHoliday_bool_bw_input[0][0] \n","__________________________________________________________________________________________________\n","SchoolHoliday_fw_Embed (Embeddi (None, 1, 1)         8           SchoolHoliday_fw_input[0][0]     \n","__________________________________________________________________________________________________\n","SchoolHoliday_bw_Embed (Embeddi (None, 1, 1)         8           SchoolHoliday_bw_input[0][0]     \n","__________________________________________________________________________________________________\n","Store_flat (Flatten)            (None, 50)           0           Store_Embed[0][0]                \n","__________________________________________________________________________________________________\n","DayOfWeek_flat (Flatten)        (None, 2)            0           DayOfWeek_Embed[0][0]            \n","__________________________________________________________________________________________________\n","Year_flat (Flatten)             (None, 2)            0           Year_Embed[0][0]                 \n","__________________________________________________________________________________________________\n","Month_flat (Flatten)            (None, 2)            0           Month_Embed[0][0]                \n","__________________________________________________________________________________________________\n","CompetitionMonthsOpen_flat (Fla (None, 2)            0           CompetitionMonthsOpen_Embed[0][0]\n","__________________________________________________________________________________________________\n","Promo2Weeks_flat (Flatten)      (None, 1)            0           Promo2Weeks_Embed[0][0]          \n","__________________________________________________________________________________________________\n","StoreType_flat (Flatten)        (None, 2)            0           StoreType_Embed[0][0]            \n","__________________________________________________________________________________________________\n","Assortment_flat (Flatten)       (None, 3)            0           Assortment_Embed[0][0]           \n","__________________________________________________________________________________________________\n","PromoInterval_flat (Flatten)    (None, 3)            0           PromoInterval_Embed[0][0]        \n","__________________________________________________________________________________________________\n","State_flat (Flatten)            (None, 6)            0           State_Embed[0][0]                \n","__________________________________________________________________________________________________\n","Events_flat (Flatten)           (None, 4)            0           Events_Embed[0][0]               \n","__________________________________________________________________________________________________\n","Promo_fw_flat (Flatten)         (None, 1)            0           Promo_fw_Embed[0][0]             \n","__________________________________________________________________________________________________\n","Promo_bw_flat (Flatten)         (None, 1)            0           Promo_bw_Embed[0][0]             \n","__________________________________________________________________________________________________\n","StateHoliday_bool_fw_flat (Flat (None, 1)            0           StateHoliday_bool_fw_Embed[0][0] \n","__________________________________________________________________________________________________\n","StateHoliday_bool_bw_flat (Flat (None, 1)            0           StateHoliday_bool_bw_Embed[0][0] \n","__________________________________________________________________________________________________\n","SchoolHoliday_fw_flat (Flatten) (None, 1)            0           SchoolHoliday_fw_Embed[0][0]     \n","__________________________________________________________________________________________________\n","SchoolHoliday_bw_flat (Flatten) (None, 1)            0           SchoolHoliday_bw_Embed[0][0]     \n","__________________________________________________________________________________________________\n","CompetitionDistance_input (Inpu [(None, 1)]          0                                            \n","__________________________________________________________________________________________________\n","Mean_TemperatureC_input (InputL [(None, 1)
…
               CloudCover_input[0][0]           \n","                                                                 trend_input[0][0]                \n","                                                                 BeforeStateHoliday_bool_input[0][\n","                                                                 Promo_input[0][0]                \n","                                                                 BeforeSchoolHoliday_input[0][0]  \n","__________________________________________________________________________________________________\n","dense_7 (Dense)                 (None, 1000)         94000       All_Concatenate[0][0]            \n","__________________________________________________________________________________________________\n","activation_2 (Activation)       (None, 1000)         0           dense_7[0][0]                    \n","__________________________________________________________________________________________________\n","dense_8 (Dense)                 (None, 500)          500500      activation_2[0][0]               \n","__________________________________________________________________________________________________\n","activation_3 (Activation)       (None, 500)          0           dense_8[0][0]                    \n","__________________________________________________________________________________________________\n","Sales (Dense)                   (None, 1)            501         activation_3[0][0]               \n","==================================================================================================\n","Total params: 651,094\n","Trainable params: 651,094\n","Non-trainable params: 0\n","__________________________________________________________________________________________________\n"]}]},{"cell_type":"code","metadata":{"id":"5sCcF3s8mdFR","executi
…
   0                                            \n","__________________________________________________________________________________________________\n","SchoolHoliday_fw_input (InputLa [(None, 1)]          0                                            \n","__________________________________________________________________________________________________\n","SchoolHoliday_bw_input (InputLa [(None, 1)]          0                                            \n","__________________________________________________________________________________________________\n","Store_Embed (Embedding)         (None, 1, 50)        55750       Store_input[0][0]                \n","__________________________________________________________________________________________________\n","DayOfWeek_Embed (Embedding)     (None, 1, 2)         14          DayOfWeek_input[0][0]            \n","__________________________________________________________________________________________________\n","Month_Embed (Embedding)         (None, 1, 2)         24          Month_input[0][0]                \n","__________________________________________________________________________________________________\n","CompetitionMonthsOpen_Embed (Em (None, 1, 2)         50          CompetitionMonthsOpen_input[0][0]\n","__________________________________________________________________________________________________\n","Promo2Weeks_Embed (Embedding)   (None, 1, 1)         26          Promo2Weeks_input[0][0]          \n","__________________________________________________________________________________________________\n","StoreType_Embed (Embedding)     (None, 1, 2)         8           StoreType_input[0][0]            \n","__________________________________________________________________________________________________\n","Assortment_Embed (Embedding)    (None, 1, 3)         9           Assortment_input[0][0]           \n","__________________________________________________________________________________________________\n","PromoInterval_Embed (Embedding) (None, 1, 3)         12          PromoInterval_input[0][0]        \n","__________________________________________________________________________________________________\n","CompetitionOpenSinceYear_Embed  (None, 1, 4)         84          CompetitionOpenSinceYear_input[0]\n","__________________________________________________________________________________________________\n","Promo2SinceYear_Embed (Embeddin (None, 1, 4)         32          Promo2SinceYear_input[0][0]      \n","__________________________________________________________________________________________________\n","State_Embed (Embedding)         (None, 1, 6)         72          State_input[0][0]                \n","__________________________________________________________________________________________________\n","Events_Embed (Embedding)        (None, 1, 4)         88          Events_input[0][0]               \n","__________________________________________________________________________________________________\n","Promo_Embed (Embedding)         (None, 1, 1)         2           Promo_input[0][0]                \n","__________________________________________________________________________________________________\n","Promo_fw_Embed (Embedding)      (None, 1, 1)         6           Promo_fw_input[0][0]             \n","__________________________________________________________________________________________________\n","Promo_bw_Embed (Embedding)      (None, 1, 1)         6           Promo_bw_input[0][0]             \n","__________________________________________________________________________________________________\n","StateHoliday_bool_fw_Embed (Emb (None, 1, 1)         3           StateHoliday_bool_fw_input[0][0] \n","__________________________________________________________________________________________________\n","StateHoliday_bool_bw_Embed (Emb (None, 1, 1)         3           StateHoliday_bool_bw_input[0][0] \n","__________________________________________________________________________________________________\n","SchoolHoliday_fw_Embed (Embeddi (None, 1, 1)         8           SchoolHoliday_fw_input[0][0]     \n","__________________________________________________________________________________________________\n","SchoolHoliday_bw_Embed (Embeddi (None, 1, 1)         8           SchoolHoliday_bw_input[0][0]     \n","__________________________________________________________________________________________________\n","Store_flat (Flatten)            (None, 50)           0           Store_Embed[0][0]                \n","__________________________________________________________________________________________________\n","DayOfWeek_flat (Flatten)        (None, 2)            0           DayOfWeek_Embed[0][0]            \n","__________________________________________________________________________________________________\n","Month_flat (Flatten)            (None, 2)            0           Month_Embed[0][0]                \n","__________________________________________________________________________________________________\n","CompetitionMonthsOpen_flat (Fla (None, 2)            0           CompetitionMonthsOpen_Embed[0][0]\n","__________________________________________________________________________________________________\n","Promo2Weeks_flat (Flatten)      (None, 1)            0           Promo2Weeks_Embed[0][0]          \n","__________________________________________________________________________________________________\n","StoreType_flat (Flatten)        (None, 2)            0           StoreType_Embed[0][0]            \n","__________________________________________________________________________________________________\n","Assortment_flat (Flatten)       (None, 3)            0           Assortment_Embed[0][0]           \n","__________________________________________________________________________________________________\n","PromoInterval_flat (Flatten)    (None, 3)            0           PromoInterval_Embed[0][0]        \n","__________________________________________________________________________________________________\n","CompetitionOpenSinceYear_flat ( (None, 4)            0           CompetitionOpenSinceYear_Embed[0]\n","__________________________________________________________________________________________________\n","Promo2SinceYear_flat (Flatten)  (None, 4)            0           Promo2SinceYear_Embed[0][0]      \n","__________________________________________________________________________________________________\n","State_flat (Flatten)            (None, 6)            0           State_Embed[0][0]                \n","__________________________________________________________________________________________________\n","Events_flat (Flatten)           (None, 4)            0           Events_Embed[0][0]               \n","__________________________________________________________________________________________________\n","Promo_flat (Flatten)            (None, 1)            0           Promo_Embed[0][0]                \n","__________________________________________________________________________________________________\n","Promo_fw_flat (Flatten)         (None, 1)            0           Promo_fw_Embed[0][0]             \n","__________________________________________________________________________________________________\n","Promo_bw_flat (Flatten)         (None, 1)            0           Promo_bw_Embed[0][0]             \n","__________________________________________________________________________________________________\n","StateHoliday_bool_fw_flat (Flat (None, 1)            0           StateHoliday_bool_fw_Embed[0][0] \n","__________________________________________________________________________________________________\n","StateHoliday_bool_bw_flat (Flat (None, 1)            0           StateHoliday_bool_bw_Embed[0][0] \n","__________________________________________________________________________________________________\n","SchoolHoliday_fw_flat (Flatten) (None, 1)            0           SchoolHoliday_fw_Embed[0][0]     \n","__________________________________________________________________________________________________\n","SchoolHoliday_bw_flat (Flatten) (None, 1)            0           SchoolHoliday_bw_Embed[0][0]     \n","__________________________________________________________________________________________________\n","CompetitionDistance_input (Inpu [(None, 1)]          0                                            \n","__________________________________________________________________________________________________\n","Mean_TemperatureC_input (InputL [(None, 1)
…
               CloudCover_input[0][0]           \n","                                                                 trend_input[0][0]                \n","                                                                 trend_DE_input[0][0]             \n","                                                                 BeforeStateHoliday_bool_input[0][\n","                                                                 BeforeSchoolHoliday_input[0][0]  \n","__________________________________________________________________________________________________\n","dense_8 (Dense)                 (None, 1000)         101000      All_Concatenate[0][0]            \n","__________________________________________________________________________________________________\n","activation (Activation)         (None, 1000)         0           dense_8[0][0]                    \n","__________________________________________________________________________________________________\n","dense_9 (Dense)                 (None, 500)          500500      activation[0][0]                 \n","__________________________________________________________________________________________________\n","activation_1 (Activation)       (None, 500)          0           dense_9[0][0]                    \n","__________________________________________________________________________________________________\n","Sales (Dense)                   (None, 1)            501         activation_1[0][0]               \n","__________________________________________________________________________________________________\n","Customers (Dense)               (None, 1)            501         activation_1[0][0]               \n","==================================================================================================\n","Total params: 658,707\n","Trainable params: 658,707\n","Non-trainable params: 0\n","__________________________________________________________________________________________________\n","Cantidad en val: 30188, porcentaje: 0.9642465458145908\n"]},{"o
…
